…
   0           []                               \n","                                                                                                  \n"," input_7 (InputLayer)           [(None, 1)]          0           []                               \n","                                                                                                  \n"," input_8 (InputLayer)           [(None, 21)]         0           []                               \n","                                                                                                  \n"," embedding_5 (Embedding)        (None, 1, 32)        53856       ['input_6[0][0]']                \n","                                                                                                  \n"," embedding_6 (Embedding)        (None, 1, 32)        30208       ['input_7[0][0]']                \n","                                                                                                  \n"," embedding_7 (Embedding)        (None, 21, 32)       53856       ['input_8[0][0]']                \n","                                                                                                  \n"," flatten_5 (Flatten)            (None, 32)           0           ['embedding_5[0][0]']            \n","                                                                                                  \n"," flatten_6 (Flatten)            (None, 32)           0           ['embedding_6[0][0]']            \n","                                                                                                  \n"," flatten_7 (Flatten)            (None, 672)          0           ['embedding_7[0][0]']            \n","                                                                                                  \n"," concatenate_2 (Concatenate)    (None, 736)          0           ['flatten_5[0][0]',              \n","                                                                  'flatten_6[0][0]',              \n","                                                                  'flatten_7[0][0]']              \n","                                                                                                  \n"," dropout_6 (Dropout)            (None, 736)          0           ['concatenate_2[0][0]']          \n","                                                                                                  \n"," dense_6 (Dense)                (None, 128)          94336       ['dropout_6[0][0]']              \n","                                                                                                  \n"," dropout_7 (Dropout)            (None, 128)          0           ['dense_6[0][0]']                \n","                                                                                                  \n"," dense_7 (Dense)                (None, 16)           2064        ['dropout_7[0][0]']              \n","                                                                                                  \n"," dropout_8 (Dropout)            (None, 16)           0           ['dense_7[0][0]']                \n","                                                                                                  \n"," dense_8 (Dense)                (None, 1)            17          ['dropout_8[0][0]']              \n","                                                                                                  \n","==================================================================================================\n","Total params: 234,337\n","Trainable params: 234,337\n","Non-trainable params: 0\n","______________________________________________________________
…
